…
:::MLLOG {"namespace": "", "time_ms": 1633377806537, "event_type": "POINT_IN_TIME", "key": "number_of_nodes", "value": 128, "metadata": {"file": "/p/project/jb_benchmark/MLPerf-1.0-combined/MLPerf/benchmarks-closed/cosmoflow//cosmoflow/train.py", "lineno": 132}}
:::MLLOG {"namespace": "", "time_ms": 1633377806538, "event_type": "POINT_IN_TIME", "key": "accelerators_per_node", "value": 4, "metadata": {"file": "/p/project/jb_benchmark/MLPerf-1.0-combined/MLPerf/benchmarks-closed/cosmoflow//cosmoflow/train.py", "lineno": 134}}
--------------------------------------------------------------------------------
        Layer (type)                                Output Shape         Param #
================================================================================
               Input                       (1, 128, 128, 128, 4)               0
            Conv3D-1                      (1, 128, 128, 128, 32)            3488
         LeakyReLU-2                      (1, 128, 128, 128, 32)               0
 PaddedConvolution-3                      (1, 128, 128, 128, 32)               0
         MaxPool3D-4                         (1, 64, 64, 64, 32)               0
            Conv3D-5                         (1, 64, 64, 64, 64)           55360
         LeakyReLU-6                         (1, 64, 64, 64, 64)               0
 PaddedConvolution-7                         (1, 64, 64, 64, 64)               0
         MaxPool3D-8                         (1, 32, 32, 32, 64)               0
            Conv3D-9                        (1, 32, 32, 32, 128)          221312
        LeakyReLU-10                        (1, 32, 32, 32, 128)               0
PaddedConvolution-11                        (1, 32, 32, 32, 128)               0
        MaxPool3D-12                        (1, 16, 16, 16, 128)               0
           Conv3D-13                        (1, 16, 16, 16, 256)          884992
        LeakyReLU-14                        (1, 16, 16, 16, 256)               0
PaddedConvolution-15                        (1, 16, 16, 16, 256)               0
        MaxPool3D-16                           (1, 8, 8, 8, 256)               0
           Conv3D-17                           (1, 8, 8, 8, 512)         3539456
        LeakyReLU-18                           (1, 8, 8, 8, 512)               0
PaddedConvolution-19                           (1, 8, 8, 8, 512)               0
        MaxPool3D-20                           (1, 4, 4, 4, 512)               0
            Dense-21                                    (1, 128)         4194432
        LeakyReLU-22                                    (1, 128)               0
          Dropout-23                                    (1, 128)               0
            Dense-24                                     (1, 64)            8256
        LeakyReLU-25                                     (1, 64)               0
          Dropout-26                                     (1, 64)               0
            Dense-27                                      (1, 4)             260
       Activation-28                                      (1, 4)               0
         Scale1p2-29                                      (1, 4)               0
================================================================================
Parameters in forward computation graph, duplicate included
   Total params: 8907556
   Trainable params: 8907556
   Non-trainable params: 0
Shared params in forward computation graph: 0
Unique parameters in model: 8907556
--------------------------------------------------------------------------------
:::MLLOG {"namespace": "", "time_ms": 1633377829618, "event_type": "POINT_IN_TIME", "key": "opt_weight_decay", "value": 0.0, "metadata": {"file": "/p/project/jb_benchmark/MLPerf-1.0-combined/MLPerf/benchmarks-closed/cosmoflow//cosmoflow/train.py", "lineno": 150}}
…
