…
  0: :::MLLOG {"namespace": "", "time_ms": 1633413642115, "event_type": "POINT_IN_TIME", "key": "scheduler_lr_warmup_steps", "value": 200, "metadata": {"file": "/hkfs/work/workspace/scratch/qv2382-mlperf-combined/MLPerf/benchmarks-closed/deepcam/image-src/utils/optimizer_helpers.py", "lineno": 108}}
  0: :::MLLOG {"namespace": "", "time_ms": 1633413642115, "event_type": "POINT_IN_TIME", "key": "scheduler_lr_warmup_factor", "value": 1.0, "metadata": {"file": "/hkfs/work/workspace/scratch/qv2382-mlperf-combined/MLPerf/benchmarks-closed/deepcam/image-src/utils/optimizer_helpers.py", "lineno": 108}}
  0: DeepLabv3_plus(
  0:   (xception_features): Xception(
  0:     (relu): ReLU()
  0:     (conv1): Conv2d(16, 32, kernel_size=(3, 3), stride=(2, 2), padding=(1, 1), bias=False)
  0:     (bn1): Sequential(
  0:       (0): BatchNorm2d(32, eps=1e-05, momentum=0.1, affine=True, track_running_stats=True)
  0:       (1): ReLU()
  0:     )
  0:     (conv2): Conv2d(32, 64, kernel_size=(3, 3), stride=(1, 1), padding=(1, 1), bias=False)
  0:     (bn2): Sequential(
  0:       (0): BatchNorm2d(64, eps=1e-05, momentum=0.1, affine=True, track_running_stats=True)
  0:       (1): ReLU()
  0:     )
  0:     (block1): Block(
  0:       (skip): Conv2d(64, 128, kernel_size=(1, 1), stride=(2, 2), bias=False)
  0:       (skipbn): BatchNorm2d(128, eps=1e-05, momentum=0.1, affine=True, track_running_stats=True)
  0:       (relu): ReLU()
  0:       (rep): Sequential(
  0:         (0): SeparableConv2d_same(
  0:           (conv1): Conv2d(64, 64, kernel_size=(3, 3), stride=(1, 1), padding=(1, 1), groups=64, bias=False)
  0:           (pointwise): Conv2d(64, 128, kernel_size=(1, 1), stride=(1, 1), bias=False)
  0:         )
  0:         (1): Seque
  0: ntial(
  0:           (0): BatchNorm2d(128, eps=1e-05, momentum=0.1, affine=True, track_running_stats=True)
  0:           (1): ReLU()
  0:         )
  0:         (2): SeparableConv2d_same(
  0:           (conv1): Conv2d(128, 128, kernel_size=(3, 3), stride=(1, 1), padding=(1, 1), groups=128, bias=False)
  0:           (pointwise): Conv2d(128, 128, kernel_size=(1, 1), stride=(1, 1), bias=False)
  0:         )
  0:         (3): BatchNorm2d(128, eps=1e-05, momentum=0.1, affine=True, track_running_stats=True)
  0:         (4): SeparableConv2d_same(
  0:           (conv1): Conv2d(128, 128, kernel_size=(3, 3), stride=(2, 2), padding=(1, 1), groups=128, bias=False)
  0:           (pointwise): Conv2d(128, 128, kernel_size=(1, 1), stride=(1, 1), bias=False)
  0:         )
  0:       )
  0:     )
  0:     (block2): Block(
  0:       (skip): Conv2d(128, 256, kernel_size=(1, 1), stride=(2, 2), bias=False)
  0:       (skipbn): BatchNorm2d(256, eps=1e-05, momentum=0.1, affine=True, track_running_stats=True)
  0:       (relu): ReLU()
  0:       (rep): Sequential(
  0:         (0): SeparableConv2d_same(
  0:           (conv1):
  0:  Conv2d(128, 128, kernel_size=(3, 3), stride=(1, 1), padding=(1, 1), groups=128, bias=False)
  0:           (pointwise): Conv2d(128, 256, kernel_size=(1, 1), stride=(1, 1), bias=False)
  0:         )
  0:         (1): Sequential(
  0:           (0): BatchNorm2d(256, eps=1e-05, momentum=0.1, affine=True, track_running_stats=True)
  0:           (1): ReLU()
  0:         )
  0:         (2): SeparableConv2d_same(
  0:           (conv1): Conv2d(256, 256, kernel_size=(3, 3), stride=(1, 1), padding=(1, 1), groups=256, bias=False)
  0:           (pointwise): Conv2d(256, 256, kernel_size=(1, 1), stride=(1, 1), bias=False)
  0:         )
  0:         (3): BatchNorm2d(256, eps=1e-05, momentum=0.1, affine=True, track_running_stats=True)
  0:         (4): SeparableConv2d_same(
  0:           (conv1): Conv2d(256, 256, kernel_size=(3, 3), stride=(2, 2), padding=(1, 1), groups=256, bias=False)
  0:           (pointwise): Conv2d(256, 256, kernel_size=(1, 1), stride=(1, 1), bias=False)
  0:         )
  0:       )
  0:     )
  0:     (block3): Block(
  0:       (skip): Conv2d(256, 728, kernel_size=(1, 1), stride=(2, 2), 
  0: bias=False)
  0:       (skipbn): BatchNorm2d(728, eps=1e-05, momentum=0.1, affine=True, track_running_stats=True)
  0:       (relu): ReLU()
  0:       (rep): Sequential(
  0:         (0): SeparableConv2d_same(
  0:           (conv1): Conv2d(256, 256, kernel_size=(3, 3), stride=(1, 1), padding=(1, 1), groups=256, bias=False)
  0:           (pointwise): Conv2d(256, 728, kernel_size=(1, 1), stride=(1, 1), bias=False)
  0:         )
  0:         (1): BatchNorm2d(728, eps=1e-05, momentum=0.1, affine=True, track_running_stats=True)
  0:         (2): ReLU()
  0:         (3): SeparableConv2d_same(
  0:           (conv1): Conv2d(728, 728, kernel_size=(3, 3), stride=(1, 1), padding=(1, 1), groups=728, bias=False)
  0:           (pointwise): Conv2d(728, 728, kernel_size=(1, 1), stride=(1, 1), bias=False)
  0:         )
  0:         (4): BatchNorm2d(728, eps=1e-05, momentum=0.1, affine=True, track_running_stats=True)
  0:         (5): SeparableConv2d_same(
  0:           (conv1): Conv2d(728, 728, kernel_size=(3, 3), stride=(2, 2), padding=(1, 1), groups=728, bias=False)
  0:           (pointwise): Conv2
  0: d(728, 728, kernel_size=(1, 1), stride=(1, 1), bias=False)
  0:         )
  0:       )
  0:     )
  0:     (block4): Block(
  0:       (relu): ReLU()
  0:       (rep): Sequential(
  0:         (0): SeparableConv2d_same(
  0:           (conv1): Conv2d(728, 728, kernel_size=(3, 3), stride=(1, 1), padding=(1, 1), groups=728, bias=False)
  0:           (pointwise): Conv2d(728, 728, kernel_size=(1, 1), stride=(1, 1), bias=False)
  0:         )
  0:         (1): Sequential(
  0:           (0): BatchNorm2d(728, eps=1e-05, momentum=0.1, affine=True, track_running_stats=True)
  0:           (1): ReLU()
  0:         )
  0:         (2): SeparableConv2d_same(
  0:           (conv1): Conv2d(728, 728, kernel_size=(3, 3), stride=(1, 1), padding=(1, 1), groups=728, bias=False)
  0:           (pointwise): Conv2d(728, 728, kernel_size=(1, 1), stride=(1, 1), bias=False)
  0:         )
  0:         (3): Sequential(
  0:           (0): BatchNorm2d(728, eps=1e-05, momentum=0.1, affine=True, track_running_stats=True)
  0:           (1): ReLU()
  0:         )
  0:         (4): SeparableConv2d_same(
  0:           (conv1): Conv2d(728, 728, kernel_size
  0: =(3, 3), stride=(1, 1), padding=(1, 1), groups=728, bias=False)
  0:           (pointwise): Conv2d(728, 728, kernel_size=(1, 1), stride=(1, 1), bias=False)
  0:         )
  0:         (5): BatchNorm2d(728, eps=1e-05, momentum=0.1, affine=True, track_running_stats=True)
  0:       )
  0:     )
  0:     (block5): Block(
  0:       (relu): ReLU()
  0:       (rep): Sequential(
  0:         (0): SeparableConv2d_same(
  0:           (conv1): Conv2d(728, 728, kernel_size=(3, 3), stride=(1, 1), padding=(1, 1), groups=728, bias=False)
  0:           (pointwise): Conv2d(728, 728, kernel_size=(1, 1), stride=(1, 1), bias=False)
  0:         )
  0:         (1): Sequential(
  0:           (0): BatchNorm2d(728, eps=1e-05, momentum=0.1, affine=True, track_running_stats=True)
  0:           (1): ReLU()
  0:         )
  0:         (2): SeparableConv2d_same(
  0:           (conv1): Conv2d(728, 728, kernel_size=(3, 3), stride=(1, 1), padding=(1, 1), groups=728, bias=False)
  0:           (pointwise): Conv2d(728, 728, kernel_size=(1, 1), stride=(1, 1), bias=False)
  0:         )
  0:         (3): Sequential(
  0:           (0): BatchNorm
  0: 2d(728, eps=1e-05, momentum=0.1, affine=True, track_running_stats=True)
  0:           (1): ReLU()
  0:         )
  0:         (4): SeparableConv2d_same(
  0:           (conv1): Conv2d(728, 728, kernel_size=(3, 3), stride=(1, 1), padding=(1, 1), groups=728, bias=False)
  0:           (pointwise): Conv2d(728, 728, kernel_size=(1, 1), stride=(1, 1), bias=False)
  0:         )
  0:         (5): BatchNorm2d(728, eps=1e-05, momentum=0.1, affine=True, track_running_stats=True)
  0:       )
  0:     )
  0:     (block6): Block(
  0:       (relu): ReLU()
  0:       (rep): Sequential(
  0:         (0): SeparableConv2d_same(
  0:           (conv1): Conv2d(728, 728, kernel_size=(3, 3), stride=(1, 1), padding=(1, 1), groups=728, bias=False)
  0:           (pointwise): Conv2d(728, 728, kernel_size=(1, 1), stride=(1, 1), bias=False)
  0:         )
  0:         (1): Sequential(
  0:           (0): BatchNorm2d(728, eps=1e-05, momentum=0.1, affine=True, track_running_stats=True)
  0:           (1): ReLU()
  0:         )
  0:         (2): SeparableConv2d_same(
  0:           (conv1): Conv2d(728, 728, kernel_size=(3, 3), stride=(1, 1), 
  0: padding=(1, 1), groups=728, bias=False)
  0:           (pointwise): Conv2d(728, 728, kernel_size=(1, 1), stride=(1, 1), bias=False)
  0:         )
  0:         (3): Sequential(
  0:           (0): BatchNorm2d(728, eps=1e-05, momentum=0.1, affine=True, track_running_stats=True)
  0:           (1): ReLU()
  0:         )
  0:         (4): SeparableConv2d_same(
  0:           (conv1): Conv2d(728, 728, kernel_size=(3, 3), stride=(1, 1), padding=(1, 1), groups=728, bias=False)
  0:           (pointwise): Conv2d(728, 728, kernel_size=(1, 1), stride=(1, 1), bias=False)
  0:         )
  0:         (5): BatchNorm2d(728, eps=1e-05, momentum=0.1, affine=True, track_running_stats=True)
  0:       )
  0:     )
  0:     (block7): Block(
  0:       (relu): ReLU()
  0:       (rep): Sequential(
  0:         (0): SeparableConv2d_same(
  0:           (conv1): Conv2d(728, 728, kernel_size=(3, 3), stride=(1, 1), padding=(1, 1), groups=728, bias=False)
  0:           (pointwise): Conv2d(728, 728, kernel_size=(1, 1), stride=(1, 1), bias=False)
  0:         )
  0:         (1): Sequential(
  0:           (0): BatchNorm2d(728, eps=1e-05, mome
  0: ntum=0.1, affine=True, track_running_stats=True)
  0:           (1): ReLU()
  0:         )
  0:         (2): SeparableConv2d_same(
  0:           (conv1): Conv2d(728, 728, kernel_size=(3, 3), stride=(1, 1), padding=(1, 1), groups=728, bias=False)
  0:           (pointwise): Conv2d(728, 728, kernel_size=(1, 1), stride=(1, 1), bias=False)
  0:         )
  0:         (3): Sequential(
  0:           (0): BatchNorm2d(728, eps=1e-05, momentum=0.1, affine=True, track_running_stats=True)
  0:           (1): ReLU()
  0:         )
  0:         (4): SeparableConv2d_same(
  0:           (conv1): Conv2d(728, 728, kernel_size=(3, 3), stride=(1, 1), padding=(1, 1), groups=728, bias=False)
  0:           (pointwise): Conv2d(728, 728, kernel_size=(1, 1), stride=(1, 1), bias=False)
  0:         )
  0:         (5): BatchNorm2d(728, eps=1e-05, momentum=0.1, affine=True, track_running_stats=True)
  0:       )
  0:     )
  0:     (block8): Block(
  0:       (relu): ReLU()
  0:       (rep): Sequential(
  0:         (0): SeparableConv2d_same(
  0:           (conv1): Conv2d(728, 728, kernel_size=(3, 3), stride=(1, 1), padding=(1, 1), groups=
  0: 728, bias=False)
  0:           (pointwise): Conv2d(728, 728, kernel_size=(1, 1), stride=(1, 1), bias=False)
  0:         )
  0:         (1): Sequential(
  0:           (0): BatchNorm2d(728, eps=1e-05, momentum=0.1, affine=True, track_running_stats=True)
  0:           (1): ReLU()
  0:         )
  0:         (2): SeparableConv2d_same(
  0:           (conv1): Conv2d(728, 728, kernel_size=(3, 3), stride=(1, 1), padding=(1, 1), groups=728, bias=False)
  0:           (pointwise): Conv2d(728, 728, kernel_size=(1, 1), stride=(1, 1), bias=False)
  0:         )
  0:         (3): Sequential(
  0:           (0): BatchNorm2d(728, eps=1e-05, momentum=0.1, affine=True, track_running_stats=True)
  0:           (1): ReLU()
  0:         )
  0:         (4): SeparableConv2d_same(
  0:           (conv1): Conv2d(728, 728, kernel_size=(3, 3), stride=(1, 1), padding=(1, 1), groups=728, bias=False)
  0:           (pointwise): Conv2d(728, 728, kernel_size=(1, 1), stride=(1, 1), bias=False)
  0:         )
  0:         (5): BatchNorm2d(728, eps=1e-05, momentum=0.1, affine=True, track_running_stats=True)
  0:       )
  0:     )
  0:     (block
  0: 9): Block(
  0:       (relu): ReLU()
  0:       (rep): Sequential(
  0:         (0): SeparableConv2d_same(
  0:           (conv1): Conv2d(728, 728, kernel_size=(3, 3), stride=(1, 1), padding=(1, 1), groups=728, bias=False)
  0:           (pointwise): Conv2d(728, 728, kernel_size=(1, 1), stride=(1, 1), bias=False)
  0:         )
  0:         (1): Sequential(
  0:           (0): BatchNorm2d(728, eps=1e-05, momentum=0.1, affine=True, track_running_stats=True)
  0:           (1): ReLU()
  0:         )
  0:         (2): SeparableConv2d_same(
  0:           (conv1): Conv2d(728, 728, kernel_size=(3, 3), stride=(1, 1), padding=(1, 1), groups=728, bias=False)
  0:           (pointwise): Conv2d(728, 728, kernel_size=(1, 1), stride=(1, 1), bias=False)
  0:         )
  0:         (3): Sequential(
  0:           (0): BatchNorm2d(728, eps=1e-05, momentum=0.1, affine=True, track_running_stats=True)
  0:           (1): ReLU()
  0:         )
  0:         (4): SeparableConv2d_same(
  0:           (conv1): Conv2d(728, 728, kernel_size=(3, 3), stride=(1, 1), padding=(1, 1), groups=728, bias=False)
  0:           (pointwise): Conv2d
  0: (728, 728, kernel_size=(1, 1), stride=(1, 1), bias=False)
  0:         )
  0:         (5): BatchNorm2d(728, eps=1e-05, momentum=0.1, affine=True, track_running_stats=True)
  0:       )
  0:     )
  0:     (block10): Block(
  0:       (relu): ReLU()
  0:       (rep): Sequential(
  0:         (0): SeparableConv2d_same(
  0:           (conv1): Conv2d(728, 728, kernel_size=(3, 3), stride=(1, 1), padding=(1, 1), groups=728, bias=False)
  0:           (pointwise): Conv2d(728, 728, kernel_size=(1, 1), stride=(1, 1), bias=False)
  0:         )
  0:         (1): Sequential(
  0:           (0): BatchNorm2d(728, eps=1e-05, momentum=0.1, affine=True, track_running_stats=True)
  0:           (1): ReLU()
  0:         )
  0:         (2): SeparableConv2d_same(
  0:           (conv1): Conv2d(728, 728, kernel_size=(3, 3), stride=(1, 1), padding=(1, 1), groups=728, bias=False)
  0:           (pointwise): Conv2d(728, 728, kernel_size=(1, 1), stride=(1, 1), bias=False)
  0:         )
  0:         (3): Sequential(
  0:           (0): BatchNorm2d(728, eps=1e-05, momentum=0.1, affine=True, track_running_stats=True)
  0:           (1): ReLU
  0: ()
  0:         )
  0:         (4): SeparableConv2d_same(
  0:           (conv1): Conv2d(728, 728, kernel_size=(3, 3), stride=(1, 1), padding=(1, 1), groups=728, bias=False)
  0:           (pointwise): Conv2d(728, 728, kernel_size=(1, 1), stride=(1, 1), bias=False)
  0:         )
  0:         (5): BatchNorm2d(728, eps=1e-05, momentum=0.1, affine=True, track_running_stats=True)
  0:       )
  0:     )
  0:     (block11): Block(
  0:       (relu): ReLU()
  0:       (rep): Sequential(
  0:         (0): SeparableConv2d_same(
  0:           (conv1): Conv2d(728, 728, kernel_size=(3, 3), stride=(1, 1), padding=(1, 1), groups=728, bias=False)
  0:           (pointwise): Conv2d(728, 728, kernel_size=(1, 1), stride=(1, 1), bias=False)
  0:         )
  0:         (1): Sequential(
  0:           (0): BatchNorm2d(728, eps=1e-05, momentum=0.1, affine=True, track_running_stats=True)
  0:           (1): ReLU()
  0:         )
  0:         (2): SeparableConv2d_same(
  0:           (conv1): Conv2d(728, 728, kernel_size=(3, 3), stride=(1, 1), padding=(1, 1), groups=728, bias=False)
  0:           (pointwise): Conv2d(728, 728, kernel_siz
  0: e=(1, 1), stride=(1, 1), bias=False)
  0:         )
  0:         (3): Sequential(
  0:           (0): BatchNorm2d(728, eps=1e-05, momentum=0.1, affine=True, track_running_stats=True)
  0:           (1): ReLU()
  0:         )
  0:         (4): SeparableConv2d_same(
  0:           (conv1): Conv2d(728, 728, kernel_size=(3, 3), stride=(1, 1), padding=(1, 1), groups=728, bias=False)
  0:           (pointwise): Conv2d(728, 728, kernel_size=(1, 1), stride=(1, 1), bias=False)
  0:         )
  0:         (5): BatchNorm2d(728, eps=1e-05, momentum=0.1, affine=True, track_running_stats=True)
  0:       )
  0:     )
  0:     (block12): Block(
  0:       (relu): ReLU()
  0:       (rep): Sequential(
  0:         (0): SeparableConv2d_same(
  0:           (conv1): Conv2d(728, 728, kernel_size=(3, 3), stride=(1, 1), padding=(1, 1), groups=728, bias=False)
  0:           (pointwise): Conv2d(728, 728, kernel_size=(1, 1), stride=(1, 1), bias=False)
  0:         )
  0:         (1): Sequential(
  0:           (0): BatchNorm2d(728, eps=1e-05, momentum=0.1, affine=True, track_running_stats=True)
  0:           (1): ReLU()
  0:         )
  0:         (
  0: 2): SeparableConv2d_same(
  0:           (conv1): Conv2d(728, 728, kernel_size=(3, 3), stride=(1, 1), padding=(1, 1), groups=728, bias=False)
  0:           (pointwise): Conv2d(728, 728, kernel_size=(1, 1), stride=(1, 1), bias=False)
  0:         )
  0:         (3): Sequential(
  0:           (0): BatchNorm2d(728, eps=1e-05, momentum=0.1, affine=True, track_running_stats=True)
  0:           (1): ReLU()
  0:         )
  0:         (4): SeparableConv2d_same(
  0:           (conv1): Conv2d(728, 728, kernel_size=(3, 3), stride=(1, 1), padding=(1, 1), groups=728, bias=False)
  0:           (pointwise): Conv2d(728, 728, kernel_size=(1, 1), stride=(1, 1), bias=False)
  0:         )
  0:         (5): BatchNorm2d(728, eps=1e-05, momentum=0.1, affine=True, track_running_stats=True)
  0:       )
  0:     )
  0:     (block13): Block(
  0:       (relu): ReLU()
  0:       (rep): Sequential(
  0:         (0): SeparableConv2d_same(
  0:           (conv1): Conv2d(728, 728, kernel_size=(3, 3), stride=(1, 1), padding=(1, 1), groups=728, bias=False)
  0:           (pointwise): Conv2d(728, 728, kernel_size=(1, 1), stride=(1, 1
  0: ), bias=False)
  0:         )
  0:         (1): Sequential(
  0:           (0): BatchNorm2d(728, eps=1e-05, momentum=0.1, affine=True, track_running_stats=True)
  0:           (1): ReLU()
  0:         )
  0:         (2): SeparableConv2d_same(
  0:           (conv1): Conv2d(728, 728, kernel_size=(3, 3), stride=(1, 1), padding=(1, 1), groups=728, bias=False)
  0:           (pointwise): Conv2d(728, 728, kernel_size=(1, 1), stride=(1, 1), bias=False)
  0:         )
  0:         (3): Sequential(
  0:           (0): BatchNorm2d(728, eps=1e-05, momentum=0.1, affine=True, track_running_stats=True)
  0:           (1): ReLU()
  0:         )
  0:         (4): SeparableConv2d_same(
  0:           (conv1): Conv2d(728, 728, kernel_size=(3, 3), stride=(1, 1), padding=(1, 1), groups=728, bias=False)
  0:           (pointwise): Conv2d(728, 728, kernel_size=(1, 1), stride=(1, 1), bias=False)
  0:         )
  0:         (5): BatchNorm2d(728, eps=1e-05, momentum=0.1, affine=True, track_running_stats=True)
  0:       )
  0:     )
  0:     (block14): Block(
  0:       (relu): ReLU()
  0:       (rep): Sequential(
  0:         (0): SeparableConv2d_s
  0: ame(
  0:           (conv1): Conv2d(728, 728, kernel_size=(3, 3), stride=(1, 1), padding=(1, 1), groups=728, bias=False)
  0:           (pointwise): Conv2d(728, 728, kernel_size=(1, 1), stride=(1, 1), bias=False)
  0:         )
  0:         (1): Sequential(
  0:           (0): BatchNorm2d(728, eps=1e-05, momentum=0.1, affine=True, track_running_stats=True)
  0:           (1): ReLU()
  0:         )
  0:         (2): SeparableConv2d_same(
  0:           (conv1): Conv2d(728, 728, kernel_size=(3, 3), stride=(1, 1), padding=(1, 1), groups=728, bias=False)
  0:           (pointwise): Conv2d(728, 728, kernel_size=(1, 1), stride=(1, 1), bias=False)
  0:         )
  0:         (3): Sequential(
  0:           (0): BatchNorm2d(728, eps=1e-05, momentum=0.1, affine=True, track_running_stats=True)
  0:           (1): ReLU()
  0:         )
  0:         (4): SeparableConv2d_same(
  0:           (conv1): Conv2d(728, 728, kernel_size=(3, 3), stride=(1, 1), padding=(1, 1), groups=728, bias=False)
  0:           (pointwise): Conv2d(728, 728, kernel_size=(1, 1), stride=(1, 1), bias=False)
  0:         )
  0:         (5): BatchN
  0: orm2d(728, eps=1e-05, momentum=0.1, affine=True, track_running_stats=True)
  0:       )
  0:     )
  0:     (block15): Block(
  0:       (relu): ReLU()
  0:       (rep): Sequential(
  0:         (0): SeparableConv2d_same(
  0:           (conv1): Conv2d(728, 728, kernel_size=(3, 3), stride=(1, 1), padding=(1, 1), groups=728, bias=False)
  0:           (pointwise): Conv2d(728, 728, kernel_size=(1, 1), stride=(1, 1), bias=False)
  0:         )
  0:         (1): Sequential(
  0:           (0): BatchNorm2d(728, eps=1e-05, momentum=0.1, affine=True, track_running_stats=True)
  0:           (1): ReLU()
  0:         )
  0:         (2): SeparableConv2d_same(
  0:           (conv1): Conv2d(728, 728, kernel_size=(3, 3), stride=(1, 1), padding=(1, 1), groups=728, bias=False)
  0:           (pointwise): Conv2d(728, 728, kernel_size=(1, 1), stride=(1, 1), bias=False)
  0:         )
  0:         (3): Sequential(
  0:           (0): BatchNorm2d(728, eps=1e-05, momentum=0.1, affine=True, track_running_stats=True)
  0:           (1): ReLU()
  0:         )
  0:         (4): SeparableConv2d_same(
  0:           (conv1): Conv2d(728, 728, kern
  0: el_size=(3, 3), stride=(1, 1), padding=(1, 1), groups=728, bias=False)
  0:           (pointwise): Conv2d(728, 728, kernel_size=(1, 1), stride=(1, 1), bias=False)
  0:         )
  0:         (5): BatchNorm2d(728, eps=1e-05, momentum=0.1, affine=True, track_running_stats=True)
  0:       )
  0:     )
  0:     (block16): Block(
  0:       (relu): ReLU()
  0:       (rep): Sequential(
  0:         (0): SeparableConv2d_same(
  0:           (conv1): Conv2d(728, 728, kernel_size=(3, 3), stride=(1, 1), padding=(1, 1), groups=728, bias=False)
  0:           (pointwise): Conv2d(728, 728, kernel_size=(1, 1), stride=(1, 1), bias=False)
  0:         )
  0:         (1): Sequential(
  0:           (0): BatchNorm2d(728, eps=1e-05, momentum=0.1, affine=True, track_running_stats=True)
  0:           (1): ReLU()
  0:         )
  0:         (2): SeparableConv2d_same(
  0:           (conv1): Conv2d(728, 728, kernel_size=(3, 3), stride=(1, 1), padding=(1, 1), groups=728, bias=False)
  0:           (pointwise): Conv2d(728, 728, kernel_size=(1, 1), stride=(1, 1), bias=False)
  0:         )
  0:         (3): Sequential(
  0:           (0): B
  0: atchNorm2d(728, eps=1e-05, momentum=0.1, affine=True, track_running_stats=True)
  0:           (1): ReLU()
  0:         )
  0:         (4): SeparableConv2d_same(
  0:           (conv1): Conv2d(728, 728, kernel_size=(3, 3), stride=(1, 1), padding=(1, 1), groups=728, bias=False)
  0:           (pointwise): Conv2d(728, 728, kernel_size=(1, 1), stride=(1, 1), bias=False)
  0:         )
  0:         (5): BatchNorm2d(728, eps=1e-05, momentum=0.1, affine=True, track_running_stats=True)
  0:       )
  0:     )
  0:     (block17): Block(
  0:       (relu): ReLU()
  0:       (rep): Sequential(
  0:         (0): SeparableConv2d_same(
  0:           (conv1): Conv2d(728, 728, kernel_size=(3, 3), stride=(1, 1), padding=(1, 1), groups=728, bias=False)
  0:           (pointwise): Conv2d(728, 728, kernel_size=(1, 1), stride=(1, 1), bias=False)
  0:         )
  0:         (1): Sequential(
  0:           (0): BatchNorm2d(728, eps=1e-05, momentum=0.1, affine=True, track_running_stats=True)
  0:           (1): ReLU()
  0:         )
  0:         (2): SeparableConv2d_same(
  0:           (conv1): Conv2d(728, 728, kernel_size=(3, 3), strid
  0: e=(1, 1), padding=(1, 1), groups=728, bias=False)
  0:           (pointwise): Conv2d(728, 728, kernel_size=(1, 1), stride=(1, 1), bias=False)
  0:         )
  0:         (3): Sequential(
  0:           (0): BatchNorm2d(728, eps=1e-05, momentum=0.1, affine=True, track_running_stats=True)
  0:           (1): ReLU()
  0:         )
  0:         (4): SeparableConv2d_same(
  0:           (conv1): Conv2d(728, 728, kernel_size=(3, 3), stride=(1, 1), padding=(1, 1), groups=728, bias=False)
  0:           (pointwise): Conv2d(728, 728, kernel_size=(1, 1), stride=(1, 1), bias=False)
  0:         )
  0:         (5): BatchNorm2d(728, eps=1e-05, momentum=0.1, affine=True, track_running_stats=True)
  0:       )
  0:     )
  0:     (block18): Block(
  0:       (relu): ReLU()
  0:       (rep): Sequential(
  0:         (0): SeparableConv2d_same(
  0:           (conv1): Conv2d(728, 728, kernel_size=(3, 3), stride=(1, 1), padding=(1, 1), groups=728, bias=False)
  0:           (pointwise): Conv2d(728, 728, kernel_size=(1, 1), stride=(1, 1), bias=False)
  0:         )
  0:         (1): Sequential(
  0:           (0): BatchNorm2d(728, eps=1
  0: e-05, momentum=0.1, affine=True, track_running_stats=True)
  0:           (1): ReLU()
  0:         )
  0:         (2): SeparableConv2d_same(
  0:           (conv1): Conv2d(728, 728, kernel_size=(3, 3), stride=(1, 1), padding=(1, 1), groups=728, bias=False)
  0:           (pointwise): Conv2d(728, 728, kernel_size=(1, 1), stride=(1, 1), bias=False)
  0:         )
  0:         (3): Sequential(
  0:           (0): BatchNorm2d(728, eps=1e-05, momentum=0.1, affine=True, track_running_stats=True)
  0:           (1): ReLU()
  0:         )
  0:         (4): SeparableConv2d_same(
  0:           (conv1): Conv2d(728, 728, kernel_size=(3, 3), stride=(1, 1), padding=(1, 1), groups=728, bias=False)
  0:           (pointwise): Conv2d(728, 728, kernel_size=(1, 1), stride=(1, 1), bias=False)
  0:         )
  0:         (5): BatchNorm2d(728, eps=1e-05, momentum=0.1, affine=True, track_running_stats=True)
  0:       )
  0:     )
  0:     (block19): Block(
  0:       (relu): ReLU()
  0:       (rep): Sequential(
  0:         (0): SeparableConv2d_same(
  0:           (conv1): Conv2d(728, 728, kernel_size=(3, 3), stride=(1, 1), padding=(1, 
  0: 1), groups=728, bias=False)
  0:           (pointwise): Conv2d(728, 728, kernel_size=(1, 1), stride=(1, 1), bias=False)
  0:         )
  0:         (1): Sequential(
  0:           (0): BatchNorm2d(728, eps=1e-05, momentum=0.1, affine=True, track_running_stats=True)
  0:           (1): ReLU()
  0:         )
  0:         (2): SeparableConv2d_same(
  0:           (conv1): Conv2d(728, 728, kernel_size=(3, 3), stride=(1, 1), padding=(1, 1), groups=728, bias=False)
  0:           (pointwise): Conv2d(728, 728, kernel_size=(1, 1), stride=(1, 1), bias=False)
  0:         )
  0:         (3): Sequential(
  0:           (0): BatchNorm2d(728, eps=1e-05, momentum=0.1, affine=True, track_running_stats=True)
  0:           (1): ReLU()
  0:         )
  0:         (4): SeparableConv2d_same(
  0:           (conv1): Conv2d(728, 728, kernel_size=(3, 3), stride=(1, 1), padding=(1, 1), groups=728, bias=False)
  0:           (pointwise): Conv2d(728, 728, kernel_size=(1, 1), stride=(1, 1), bias=False)
  0:         )
  0:         (5): BatchNorm2d(728, eps=1e-05, momentum=0.1, affine=True, track_running_stats=True)
  0:       )
  0:     )
  0: 
  0:     (block20): Block(
  0:       (skip): Conv2d(728, 1024, kernel_size=(1, 1), stride=(1, 1), bias=False)
  0:       (skipbn): BatchNorm2d(1024, eps=1e-05, momentum=0.1, affine=True, track_running_stats=True)
  0:       (relu): ReLU()
  0:       (rep): Sequential(
  0:         (0): SeparableConv2d_same(
  0:           (conv1): Conv2d(728, 728, kernel_size=(3, 3), stride=(1, 1), padding=(1, 1), groups=728, bias=False)
  0:           (pointwise): Conv2d(728, 728, kernel_size=(1, 1), stride=(1, 1), bias=False)
  0:         )
  0:         (1): Sequential(
  0:           (0): BatchNorm2d(728, eps=1e-05, momentum=0.1, affine=True, track_running_stats=True)
  0:           (1): ReLU()
  0:         )
  0:         (2): SeparableConv2d_same(
  0:           (conv1): Conv2d(728, 728, kernel_size=(3, 3), stride=(1, 1), padding=(1, 1), groups=728, bias=False)
  0:           (pointwise): Conv2d(728, 1024, kernel_size=(1, 1), stride=(1, 1), bias=False)
  0:         )
  0:         (3): BatchNorm2d(1024, eps=1e-05, momentum=0.1, affine=True, track_running_stats=True)
  0:         (4): SeparableConv2d_same(
  0:        
  0:    (conv1): Conv2d(1024, 1024, kernel_size=(3, 3), stride=(1, 1), padding=(1, 1), groups=1024, bias=False)
  0:           (pointwise): Conv2d(1024, 1024, kernel_size=(1, 1), stride=(1, 1), bias=False)
  0:         )
  0:       )
  0:     )
  0:     (conv3): SeparableConv2d_same(
  0:       (conv1): Conv2d(1024, 1024, kernel_size=(3, 3), stride=(1, 1), padding=(2, 2), dilation=(2, 2), groups=1024, bias=False)
  0:       (pointwise): Conv2d(1024, 1536, kernel_size=(1, 1), stride=(1, 1), bias=False)
  0:     )
  0:     (bn3): Sequential(
  0:       (0): BatchNorm2d(1536, eps=1e-05, momentum=0.1, affine=True, track_running_stats=True)
  0:       (1): ReLU()
  0:     )
  0:     (conv4): SeparableConv2d_same(
  0:       (conv1): Conv2d(1536, 1536, kernel_size=(3, 3), stride=(1, 1), padding=(2, 2), dilation=(2, 2), groups=1536, bias=False)
  0:       (pointwise): Conv2d(1536, 1536, kernel_size=(1, 1), stride=(1, 1), bias=False)
  0:     )
  0:     (bn4): Sequential(
  0:       (0): BatchNorm2d(1536, eps=1e-05, momentum=0.1, affine=True, track_running_stats=True)
  0:       (1): ReLU()
  0:     )
  0:     (conv5): Separ
  0: ableConv2d_same(
  0:       (conv1): Conv2d(1536, 1536, kernel_size=(3, 3), stride=(1, 1), padding=(2, 2), dilation=(2, 2), groups=1536, bias=False)
  0:       (pointwise): Conv2d(1536, 2048, kernel_size=(1, 1), stride=(1, 1), bias=False)
  0:     )
  0:     (bn5): Sequential(
  0:       (0): BatchNorm2d(2048, eps=1e-05, momentum=0.1, affine=True, track_running_stats=True)
  0:       (1): ReLU()
  0:     )
  0:   )
  0:   (bottleneck): Bottleneck(
  0:     (aspp1): ASPP_module(
  0:       (atrous_convolution): Conv2d(2048, 256, kernel_size=(1, 1), stride=(1, 1), bias=False)
  0:       (bn): Sequential(
  0:         (0): BatchNorm2d(256, eps=1e-05, momentum=0.1, affine=True, track_running_stats=True)
  0:         (1): ReLU()
  0:       )
  0:     )
  0:     (aspp2): ASPP_module(
  0:       (atrous_convolution): Conv2d(2048, 256, kernel_size=(3, 3), stride=(1, 1), padding=(6, 6), dilation=(6, 6), bias=False)
  0:       (bn): Sequential(
  0:         (0): BatchNorm2d(256, eps=1e-05, momentum=0.1, affine=True, track_running_stats=True)
  0:         (1): ReLU()
  0:       )
  0:     )
  0:     (aspp3): ASPP_module(
  0:       (atrous_co
  0: nvolution): Conv2d(2048, 256, kernel_size=(3, 3), stride=(1, 1), padding=(12, 12), dilation=(12, 12), bias=False)
  0:       (bn): Sequential(
  0:         (0): BatchNorm2d(256, eps=1e-05, momentum=0.1, affine=True, track_running_stats=True)
  0:         (1): ReLU()
  0:       )
  0:     )
  0:     (aspp4): ASPP_module(
  0:       (atrous_convolution): Conv2d(2048, 256, kernel_size=(3, 3), stride=(1, 1), padding=(18, 18), dilation=(18, 18), bias=False)
  0:       (bn): Sequential(
  0:         (0): BatchNorm2d(256, eps=1e-05, momentum=0.1, affine=True, track_running_stats=True)
  0:         (1): ReLU()
  0:       )
  0:     )
  0:     (global_avg_pool): GlobalAveragePool(
  0:       (global_average_pool): Sequential(
  0:         (0): AdaptiveAvgPool2d(output_size=(1, 1))
  0:         (1): Conv2d(2048, 256, kernel_size=(1, 1), stride=(1, 1), bias=False)
  0:         (2): TrainableAffine()
  0:         (3): ReLU(inplace=True)
  0:       )
  0:     )
  0:     (tiling): Tiling()
  0:     (conv): Conv2d(1280, 256, kernel_size=(1, 1), stride=(1, 1), bias=False)
  0:     (bn): Sequential(
  0:       (0): BatchNorm2d(256, eps=1e-05, 
  0: momentum=0.1, affine=True, track_running_stats=True)
  0:       (1): ReLU()
  0:     )
  0:   )
  0:   (conv2): Conv2d(128, 48, kernel_size=(1, 1), stride=(1, 1), bias=False)
  0:   (bn2): Sequential(
  0:     (0): BatchNorm2d(48, eps=1e-05, momentum=0.1, affine=True, track_running_stats=True)
  0:     (1): ReLU()
  0:   )
  0:   (upsample): DeconvUpsampler(
  0:     (deconv1): Sequential(
  0:       (0): ConvTranspose2d(256, 256, kernel_size=(3, 3), stride=(2, 2), padding=(1, 1), output_padding=(1, 1), bias=False)
  0:       (1): Sequential(
  0:         (0): BatchNorm2d(256, eps=1e-05, momentum=0.1, affine=True, track_running_stats=True)
  0:         (1): ReLU()
  0:       )
  0:       (2): ConvTranspose2d(256, 256, kernel_size=(3, 3), stride=(2, 2), padding=(1, 1), output_padding=(1, 1), bias=False)
  0:       (3): Sequential(
  0:         (0): BatchNorm2d(256, eps=1e-05, momentum=0.1, affine=True, track_running_stats=True)
  0:         (1): ReLU()
  0:       )
  0:     )
  0:     (conv1): Sequential(
  0:       (0): Conv2d(304, 256, kernel_size=(3, 3), stride=(1, 1), padding=(1, 1), bias=False)
  0:       (1): Sequential(
  0: 
  0:         (0): BatchNorm2d(256, eps=1e-05, momentum=0.1, affine=True, track_running_stats=True)
  0:         (1): ReLU()
  0:       )
  0:       (2): Conv2d(256, 256, kernel_size=(3, 3), stride=(1, 1), padding=(1, 1), bias=False)
  0:       (3): Sequential(
  0:         (0): BatchNorm2d(256, eps=1e-05, momentum=0.1, affine=True, track_running_stats=True)
  0:         (1): ReLU()
  0:       )
  0:       (4): Conv2d(256, 256, kernel_size=(1, 1), stride=(1, 1))
  0:     )
  0:     (deconv2): Sequential(
  0:       (0): ConvTranspose2d(256, 256, kernel_size=(3, 3), stride=(2, 2), padding=(1, 1), output_padding=(1, 1), bias=False)
  0:       (1): Sequential(
  0:         (0): BatchNorm2d(256, eps=1e-05, momentum=0.1, affine=True, track_running_stats=True)
  0:         (1): ReLU()
  0:       )
  0:     )
  0:     (last_deconv): Sequential(
  0:       (0): ConvTranspose2d(256, 3, kernel_size=(3, 3), stride=(2, 2), padding=(1, 1), output_padding=(1, 1), bias=False)
  0:     )
  0:   )
  0: )
  0: Number of trainable parameters: 56454720
328: root_dir: /tmp/deepcam/instance0
  0: Creating Dataloaders
337: root_dir: /tmp/deepcam/instance0
  0: :::MLLOG {"namespace": "", "time_ms": 1633413642823, "event_type": "POINT_IN_TIME", "key": "train_samples", "value": 121266, "metadata": {"file": "./train_instance.py", "lineno": 353}}
…
